…
[1113_001013] lib.torch_utils.solver.ranger INFO@92: Ranger optimizer loaded. 
Gradient Centralization usage = True
[1113_001013] lib.torch_utils.solver.ranger INFO@94: GC applied to both conv and fc layers
[1113_001013] core.catre.models.CATRE_disR_shared WARNING@319: Randomly initialize weights for pcl_net!
[1113_001015] core.catre.datasets.nocs INFO@290: load cached dataset dicts from /home/chenwang/Documents/Lynne/Code/My_CATRE/.cache/dataset_dicts_nocs_train_real_d6116477e5dc3f81cd06180b2e550ad8.pkl
20231113_001015|__main__:main@139: Model:
CATRE_disR_shared(
  (pcl_net): PointNetfeat(
    (stn): STN3d(
      (conv1): Conv1d(3, 64, kernel_size=(1,), stride=(1,))
      (conv2): Conv1d(64, 128, kernel_size=(1,), stride=(1,))
      (conv3): Conv1d(128, 1024, kernel_size=(1,), stride=(1,))
      (fc1): Linear(in_features=1024, out_features=512, bias=True)
      (fc2): Linear(in_features=512, out_features=256, bias=True)
      (fc3): Linear(in_features=256, out_features=9, bias=True)
      (relu): ReLU()
    )
    (conv1): HSlayer_surface(
      (relu): ReLU(inplace=True)
      (STE_layer): Conv1d(3, 64, kernel_size=(1,), stride=(1,), bias=False)
      (conv2): Conv1d(128, 64, kernel_size=(1,), stride=(1,), bias=False)
    )
    (conv2): HS_layer(
      (relu): ReLU(inplace=True)
      (STE_layer): Conv1d(64, 128, kernel_size=(1,), stride=(1,), bias=False)
      (conv2): Conv1d(256, 128, kernel_size=(1,), stride=(1,), bias=False)
    )
    (conv3): Conv1d(128, 512, kernel_size=(1,), stride=(1,))
    (conv4): Conv1d(512, 1024, kernel_size=(1,), stride=(1,))
    (fstn): STNkd(
      (conv1): HS_layer(
        (relu): ReLU(inplace=True)
        (STE_layer): Conv1d(64, 64, kernel_size=(1,), stride=(1,), bias=False)
        (conv2): Conv1d(128, 64, kernel_size=(1,), stride=(1,), bias=False)
      )
      (conv2): HS_layer(
        (relu): ReLU(inplace=True)
        (STE_layer): Conv1d(64, 128, kernel_size=(1,), stride=(1,), bias=False)
        (conv2): Conv1d(256, 128, kernel_size=(1,), stride=(1,), bias=False)
      )
      (conv3): Conv1d(128, 1024, kernel_size=(1,), stride=(1,))
      (fc1): Linear(in_features=1024, out_features=512, bias=True)
      (fc2): Linear(in_features=512, out_features=256, bias=True)
      (fc3): Linear(in_features=256, out_features=4096, bias=True)
      (fc4): Linear(in_features=256, out_features=4096, bias=True)
      (relu): ReLU()
    )
  )
  (rot_head): ConvOutPerRotHead(
    (rot_head_x): RotHead(
      (norm): GroupNorm(32, 256, eps=1e-05, affine=True)
      (act_func): GELU()
      (layers): ModuleList(
        (0): Conv1d(1088, 256, kernel_size=(1,), stride=(1,))
        (1): GroupNorm(32, 256, eps=1e-05, affine=True)
        (2): GELU()
        (3): Conv1d(256, 256, kernel_size=(1,), stride=(1,))
        (4): GroupNorm(32, 256, eps=1e-05, affine=True)
        (5): GELU()
      )
      (neck): ModuleList(
        (0): Conv1d(256, 3, kernel_size=(1,), stride=(1,))
      )
      (conv_p): Conv1d(1024, 1, kernel_size=(1,), stride=(1,))
    )
    (rot_head_y): RotHead(
      (norm): GroupNorm(32, 256, eps=1e-05, affine=True)
      (act_func): GELU()
      (layers): ModuleList(
        (0): Conv1d(1088, 256, kernel_size=(1,), stride=(1,))
        (1): GroupNorm(32, 256, eps=1e-05, affine=True)
        (2): GELU()
        (3): Conv1d(256, 256, kernel_size=(1,), stride=(1,))
        (4): GroupNorm(32, 256, eps=1e-05, affine=True)
        (5): GELU()
      )
      (neck): ModuleList(
        (0): Conv1d(256, 3, kernel_size=(1,), stride=(1,))
      )
      (conv_p): Conv1d(1024, 1, kernel_size=(1,), stride=(1,))
    )
  )
  (ts_head): FC_TransSizeHead(
    (head_t): RotHead(
      (norm): GroupNorm(32, 256, eps=1e-05, affine=True)
      (act_func): GELU()
      (layers): ModuleList(
        (0): Conv1d(1088, 256, kernel_size=(1,), stride=(1,))
        (1): GroupNorm(32, 256, eps=1e-05, affine=True)
        (2): GELU()
        (3): Conv1d(256, 256, kernel_size=(1,), stride=(1,))
        (4): GroupNorm(32, 256, eps=1e-05, affine=True)
        (5): GELU()
      )
      (neck): ModuleList(
        (0): Conv1d(256, 3, kernel_size=(1,), stride=(1,))
      )
      (conv_p): Conv1d(1024, 1, kernel_size=(1,), stride=(1,))
    )
    (head_s): RotHead(
      (norm): GroupNorm(32, 256, eps=1e-05, affine=True)
      (act_func): GELU()
      (layers): ModuleList(
        (0): Conv1d(1091, 256, kernel_size=(1,), stride=(1,))
        (1): GroupNorm(32, 256, eps=1e-05, affine=True)
        (2): GELU()
        (3): Conv1d(256, 256, kernel_size=(1,), stride=(1,))
        (4): GroupNorm(32, 256, eps=1e-05, affine=True)
        (5): GELU()
      )
      (neck): ModuleList(
        (0): Conv1d(256, 3, kernel_size=(1,), stride=(1,))
      )
      (conv_p): Conv1d(1024, 1, kernel_size=(1,), stride=(1,))
    )
  )
)
20231113_001015|__main__:main@144: 5.953497M params
[1113_001015] core.catre.datasets.data_loader INFO@73: Augmentations used in training: [ResizeShortestEdge(short_edge_length=(480,), max_size=640, sample_style='choice')]
20231113_001015|d2.data.build:filter_images_with_only_crowd_annotations@67: Removed 0 images with no usable annotations. 4318 images left.
…
